LSTM/lstm_model_full.pth (torch, 121228 bytes, 6 tensors)

weight_ih_l0 f4 [256, 48]
0.04314466 0.056437775 0.11599906 -0.2378605 0.100934386 -0.036858834 0.018944466 0.038391728
-0.26900312 0.093464285 -0.014122024 -0.44352615 -0.1786447 0.04461272 0.31377771 -0.047862392
-0.0059124124 0.45602652 0.0565375 -0.0043672426 0.27736676 0.023106739 0.09890901 -0.32451722
0.079293124 -0.10118371 -0.17631257 -0.03024124 -0.04345954 -0.4494761 -0.098551996 0.06695297
0.11341961 -0.0447123 0.021483395 -0.08732343 -0.26899683 -0.44162023 -0.3908119 -0.031046478
-0.04265229 -0.10335369 0.23522303 0.14054614 0.015510131 0.0021333746 0.38849023 -0.25191814
-0.04044263 0.06255191 -0.12219076 1.2909318 0.13353443 0.5439478 0.93430316 0.14033633
1.0728872 0.60526174 0.026349764 1.0029504 0.094234996 -0.07801292 0.16124554 -0.042741466
-0.05404342 -0.39998502 -0.05588485 0.10255788 -0.1897913 0.21833366 0.084732674 0.40648082
0.16412064 -0.021513829 0.31890407 -0.03697615 0.052065577 0.276544 -0.046974033 -0.016691828
-0.2778411 -0.24032891 0.021166932 -0.18895152 -0.12420857 0.32007998 -0.025274215 0.14034781
-0.05270221 0.46952626 -0.0181529 -0.027340213 0.08811911 0.17597799 -0.16567601 0.036803175
-0.0921765 -0.011999948 0.12200749 0.14343148 0.12846218 0.36840874 0.5811732 0.009195929
0.49580643 0.51702076 -0.042841084 0.32365012 0.02460762 0.12520534 0.74195266 -0.060427874
-0.057372507 0.2060996 0.10607079 0.072703846 0.2223355 0.025497815 0.09891575 0.09159404
0.09007382 -0.030239252 -0.40533817 0.08377108 -0.019328646 -0.17298134 -0.07916599 0.023458537
-0.13865234 -0.35386303 0.03250707 0.05588851 -0.05505328 0.4172016 -0.13892137 -0.029636048
0.019244328 0.08048286 -0.08961703 -0.01020387 0.14361066 0.07786872 0.044784047 0.10547425
0.115239576 0.010049297 -0.0015422255 -0.104423106 0.09994213 -0.13256629 -0.42096263 0.1166147
-0.39027607 0.1117807 -0.029705036 0.4078811 0.09901505 -0.0071064406 -0.81112665 -0.012774199
-0.0195573 -0.30482304 0.2474716 -0.13267696 0.09450098 -0.21454503 -0.06132313 0.18083374
-0.19350606 0.023308342 0.03805285 -0.11556186 0.0028927524 0.22633214 0.094338425 -0.07486338
-0.11048438 0.12718698 0.08972716 -0.1075644 0.14032224 -0.17998938 -0.20268309 -0.18738344
-0.04873238 0.083018914 -0.052287348 -0.0010073571 0.089080974 -0.05153245 -0.06765206 0.19155145
0.12259376 0.11473886 -0.042067423 -0.17030945 0.12464574 0.50278115 -0.20785388 0.09950426
0.19940536 -0.43215412 0.017966863 -0.36969265 0.005360465 -0.11821788 0.33047014 0.03768145
0.067324296 0.28072813 0.18367127 -0.088891506 0.42821035 -0.2158263 0.008076971 -0.104065605
-0.11625199 -0.051350746 -0.28928295 -0.10616817 -0.02216901 0.26457983 0.010439418 -0.06851565
0.047467776 0.034680653 0.060050122 -0.006817068 0.059185915 -0.13177556 0.027584966 -0.0101252105
0.014811735 0.23027664 0.2258467 0.08488911 0.35925108 0.35590306 0.23408344 0.6871414
0.1236521 0.07853656 -0.124073684 -0.21905074 0.12734972 0.011862585 0.30573294 -0.029031524
0.09658511 0.15097694 0.02271522 -0.15395975 0.1650828 0.14110968 0.4450586 -0.008168302
00000000: 74b8 303d 4c2b 673d ea90 ed3d b491 73be
00000010: b0b6 ce3d 4af9 16bd 6d31 9b3c a540 1d3d
00000020: c7ba 89be 346a bf3d 1060 67bc dc15 e3be
00000030: a3ee 36be d4bb 363d 79a7 a03e 5b0b 44bd
00000040: e9bc c1bb 4f7c e93e de93 673d 161b 8fbb
00000050: 0403 8e3e 584a bd3c cf90 ca3d 1f27 a6be
00000060: 6f64 a23d 6839 cfbd 488b 34be 7abc f7bc
00000070: a102 32bd bb21 e6be a1d5 c9bd a41e 893d
00000080: 8a48 e83d 3f24 37bd f2fd af3c a0d6 b2bd
00000090: f4b9 89be 0c1c e2be 7f18 c8be 2f55 febc
000000a0: 2bb4 2ebd 19ab d3bd 4ede 703e 54eb 0f3e
000000b0: 341e 7e3c 16d0 0b3b 31e8 c63e 6afb 80be
000000c0: 2ca7 25bd 371b 803d 263f fabd 413d a53f
000000d0: 40bd 083e 2a40 0b3f 7e2e 6f3f 54b4 0f3e
000000e0: 5e54 893f 6ff2 1a3f 76db d73c ae60 803f
000000f0: 47fe c03d 3dc5 9fbd 8d1d 253e ad11 2fbd
00000100: a25c 5dbd d6ca ccbe 83e7 64bd de09 d23d
00000110: a758 42be dc92 5f3e 5388 ad3d 411e d03e
00000120: 3e0f 283e c53d b0bc 6547 a33e 4e74 17bd
00000130: b742 553d 2d97 8d3e d867 40bd 4dbd 88bc
00000140: 3041 8ebe c818 76be 4666 ad3c 827c 41be
00000150: 1061 febd 86e1 a33e df0b cfbc 56b7 0f3e
00000160: 46de 57bd bf65 f03e 64b5 94bc 95f8 dfbc
00000170: cb77 b43d 9333 343e f9a6 29be edbe 163d
00000180: 08c7 bcbd 6e9b 44bc 10df f93d b4df 123e
00000190: 978b 033e 12a0 bc3e c4c7 143f 86aa 163c
000001a0: 57da fd3e 795b 043f 227a 2fbd 78b5 a53e
000001b0: eb95 c93c d435 003e 9cf0 3d3f 3883 77bd
000001c0: 6fff 6abd c60b 533e a43b d93d c1e5 943d
000001d0: ebab 633e cbe0 d03c 5794 ca3d a895 bb3d
000001e0: 9f78 b83d 4fb8 f7bc 7c88 cfbe 2c90 ab3d
000001f0: 1c57 9ebc 0522 31be c721 a2bd 1e2c c03c
00000200: e1fa 0dbe 892d b5be 2226 053d 5aeb 643d
00000210: 8c7f 61bd 739b d53e 6741 0ebe 4cc7 f2bc
00000220: 48a6 9d3c 33d4 a43d 2289 b7bd 222e 27bc
00000230: ac0e 133e a379 9f3d 7a6f 373d e202 d83d
00000240: ba02 ec3d cea5 243c 8024 caba c8db d5bd
00000250: 76ae cc3d 75bf 07be 6a88 d7be b0d3 ee3d
00000260: 44d2 c7be 48ed e43d fa57 f3bc cbd5 d03e
00000270: 67c8 ca3d 25dd e8bb ffa5 4fbf e04a 51bc
00000280: a136 a0bc c411 9cbe 3269 7d3e 78dc 07be
00000290: bb89 c13d b1b1 5bbe f62d 7bbd 7b2c 393e
000002a0: 7426 46be 23f1 be3c 4edd 1b3d b2ab ecbd
000002b0: 5594 3d3b 9dc3 673e 8134 c13d f951 99bd
000002c0: a245 e2bd 4e3d 023e e0c2 b73d b94a dcbd
000002d0: a2b0 0f3e 234f 38be 288c 4fbe 72e1 3fbe
000002e0: 9b9b 47bd d205 aa3d 422b 56bd 4c09 84ba
000002f0: 1670 b63d b113 53bd 2a8d 8abd 1026 443e
00000300: 7012 fb3d 35fc ea3d e44e 2cbd 9a65 2ebe
00000310: 4446 ff3d 44b6 003f a6d7 54be e4c8 cb3d
00000320: eb30 4c3e 4e43 ddbe 3e2f 933c 5b48 bdbe
00000330: d7a6 af3b 371c f2bd 6233 a93e dd57 1a3d
00000340: 52e1 893d 99bb 8f3e 5214 3c3e c00c b6bd
00000350: 633e db3e 9201 5dbe 4655 043c 5920 d5bd
00000360: 8615 eebd 2955 52bd e51c 94be b36e d9bd
00000370: c99b b5bc 0277 873e 180a 2b3c ef51 8cbd
00000380: 926d 423d 4d0d 0e3d 1ef7 753d b661 dfbb
00000390: ee6c 723d 2cf0 06be def9 e13c 36e4 25bc
000003a0: ebac 723c a4cd 6b3e 5b44 673e 57da ad3d
000003b0: c2ef b73e ed38 b63e 92b3 6f3e 80e8 2f3f
000003c0: 503d fd3d c7d7 a03d 581a febd d64e 60be
000003d0: f767 023e 4a5b 423c 0789 9c3e 85d3 edbc
000003e0: 6ace c53d b399 1a3e 4515 ba3c a0a7 1dbe
000003f0: 770b 293e 0e7f 103e b9de e33e 57d4 05bc

weight_hh_l0 f4 [256, 64]
0.08793175 -0.094222516 -0.09587468 -0.070200846 0.17746931 0.077511474 -0.08964311 0.04810033
-0.17109485 0.13534687 -0.07246605 0.051047623 -0.14202155 -0.06866445 -0.019602956 -0.17470704
0.025018798 0.09418052 0.10247827 0.2763602 0.18991102 -0.12409284 -0.11112068 0.24449785
-0.12603366 -0.107299 -0.04269056 0.22979216 -0.38845602 -0.032702487 -0.025976619 0.08647969
0.08635805 -0.10912432 0.2625407 0.26647928 -0.21399735 0.11994194 -0.22925484 0.07322452
0.09959477 0.0078284275 0.013517447 0.1500681 0.100872986 0.036548644 -0.012067105 0.058921244
0.07112634 -0.026907053 -0.082696766 -0.21533918 0.18851924 0.058166623 -0.12447618 0.08467734
-0.23672833 -0.037392456 0.14000556 -0.09867505 -0.15948404 0.18385243 0.17715226 0.15536341
0.076907754 -0.16533425 0.18231243 0.023032177 0.016612997 -0.037050057 -0.09063269 -0.059620213
-0.1645503 -0.07729917 0.20666455 -0.13699766 0.28020462 0.032095056 0.055933956 -0.027217677
0.23942356 -0.13655509 0.17169362 0.05946443 -0.025263594 -0.23839559 0.27818888 -0.21818231
-0.09055029 -0.053244233 -0.096985355 -0.16041277 -0.2037851 0.059058517 0.3404873 0.41589814
-0.15232192 -0.07548504 0.14499408 0.010711065 -0.4609429 -0.035320915 0.15568863 -0.010580026
-0.050335836 -0.07487539 -0.21523453 0.028299868 0.28277782 0.3249943 -0.27868512 -0.053776603
0.04392859 0.17453545 -0.16717629 0.2752984 -0.00088353304 -0.0018600241 -0.023140227 -0.1132832
0.062366705 -0.12860802 0.07109042 0.01700982 -0.011108819 -0.0133949835 -0.010411858 -0.28992614
0.036665 -0.07734755 -0.008958728 -0.08586726 -0.16980532 -0.08625008 -0.053458203 0.18681644
0.23365246 -0.055104297 0.40782678 0.07001622 0.006093187 -0.15551223 -0.055559475 -0.040859565
-0.007487805 -0.011336496 -0.107767195 -0.043231934 -0.32171124 0.12725642 0.14109433 -0.3881276
-0.26287875 -0.05450176 0.04640514 -0.07416236 -0.105312064 0.12614928 0.09269763 0.16131829
0.0016308349 0.026888078 0.08855195 -0.02427673 -0.074025184 -0.120728835 0.17913182 -0.03485088
-0.08446114 -0.08183644 0.024189612 0.0027169306 0.08473017 0.1665532 -0.04672149 -0.11443776
-0.051994268 0.0031433227 -0.0880483 -0.0313112 0.0033868807 0.016267847 0.07086863 0.075017795
0.06579798 -0.1977201 0.036409516 -0.16061062 0.08932114 -0.071956575 -0.027637059 0.022911126
-0.07183372 -0.13510425 -0.03570823 0.07469351 -0.020489784 -0.045967605 -0.074050166 -0.34952626
-0.110568404 0.08661469 0.039543338 -0.06587799 0.013379606 0.03542233 0.0019268751 0.12840593
0.06844891 -0.023601502 -0.07227548 0.02503006 -0.13286936 0.022427704 0.06864482 -0.031079836
-0.033570047 -0.040931214 0.053036124 0.07731366 -0.21635349 0.028996779 0.10595666 0.13807587
0.010265218 -0.15874231 0.14550328 -0.09211405 -0.15916319 -0.05110487 0.16241208 0.09260057
-0.021681648 -0.08835912 0.04848624 -0.22045647 0.06228934 -0.123151794 -0.2708428 0.0775397
-0.035300367 -0.055511978 -0.014833323 0.16800442 -0.25857657 -0.21386676 -0.061269805 -0.19259058
0.010187099 0.042988304 -0.03572839 -0.06970677 0.09849121 -0.13786654 -0.066709414 0.026013853
00000000: 9015 b43d bcf7 c0bd f259 c4bd 76c5 8fbd
00000010: 84ba 353e 56be 9e3d cf96 b7bd da04 453d
00000020: 7d33 2fbe 5f98 0a3e 1569 94bd 5017 513d
00000030: 196e 11be f29f 8cbd 6196 a0bc 67e6 32be
00000040: 39f4 cc3c b7e1 c03d 21e0 d13d 167f 8d3e
00000050: 0978 423e 6324 febd 3d93 e3bd a55d 7a3e
00000060: f80e 01be 94bf dbbd 4cdc 2ebd a34e 6b3e
00000070: b5e3 c6be 0bf3 05bd ebcc d4bc 441c b13d
00000080: 7ddc b03d 927c dfbd bc6b 863e f96f 883e
00000090: 1f22 5bbe 1fa4 f53d c8c1 6abe bdf6 953d
000000a0: 58f8 cb3d ce42 003c 4878 5d3c 74ab 193e
000000b0: 7f96 ce3d 08b4 153d 1bb5 45bc 6757 713d
000000c0: b0aa 913d 2e6c dcbc ec5c a9bd e081 5cbe
000000d0: 300b 413e 2040 6e3d 5eed febd 506b ad3d
000000e0: e968 72be d528 19bd 9e5d 0f3e 2516 cabd
000000f0: c94f 23be d043 3c3e 6767 353e 9617 1f3e
00000100: d081 9d3d 624d 29be 1cb0 3a3e faad bc3c
00000110: fb17 883c cdc1 17bd a29d b9bd 5334 74bd
00000120: e07f 28be 074f 9ebd df9f 533e 1d49 0cbe
00000130: fb76 8f3e 1b76 033d 011b 653d 9bf7 debc
00000140: 732b 753e 19d5 0bbe 74d0 2f3e f990 733d
00000150: 99f5 cebc f91d 74be c66e 8e3e 2f6b 5fbe
00000160: 6e72 b9bd a016 5abd 42a0 c6bd 3f43 24be
00000170: 0bad 50be 58e7 713d 5a54 ae3e 9af0 d43e
00000180: 47fa 1bbe e797 9abd 5479 143e 767d 2f3c
00000190: b500 ecbe aaac 10bd d76c 1f3e d857 2dbc
000001a0: f32c 4ebd 4558 99bd 7166 5cbe 20d5 e73c
000001b0: 41c8 903e a765 a63e d1af 8ebe db44 5cbd
000001c0: 77ee 333d 6cb9 323e 4330 2bbe e9f3 8c3e
000001d0: e69c 67ba 0dcc f3ba 9390 bdbc 0601 e8bd
000001e0: 3b74 7f3d d2b1 03be db97 913d 2e58 8b3c
000001f0: c401 36bc a276 5bbc 7f96 2abc 3371 94be
00000200: 0a2e 163d 6468 9ebd a1c7 12bc 2ddb afbd
00000210: 72e1 2dbe e2a3 b0bd fdf6 5abd cf4c 3f3e
00000220: 9742 6f3e 0bb5 61bd acce d03e aa64 8f3d
00000230: 5ba9 c73b 993e 1fbe 5592 63bd 5c5c 27bd
00000240: 435c f5bb b6bc 39bc 0cb5 dcbd f813 31bd
00000250: 56b7 a4be 824f 023e 087b 103e a9b8 c6be
00000260: 0b98 86be 3d3d 5fbd 5113 3e3d 6fe2 97bd
00000270: daad d7bd 472d 013e 41d8 bd3d 9f30 253e
00000280: bdc1 d53a 6344 dc3c ba5a b53d fedf c6bc
00000290: 849a 97bd ae40 f7bd 556e 373e ccbf 0ebd
000002a0: f6f9 acbd dd99 a7bd 4b29 c63c 880e 323b
000002b0: 0387 ad3d ec8c 2a3e 085f 3fbd 585e eabd
000002c0: f1f7 54bd 3400 4e3b ab52 b4bd 2c40 00bd
000002d0: 6ef6 5d3b 2644 853c 9323 913d eea2 993d
000002e0: 17c1 863d 2377 4abe 2522 153d 1c77 24be
000002f0: 00ee b63d f85d 93bd 1d67 e2bc 1db0 bb3c
00000300: 8f1d 93bd c558 0abe cb42 12bd e9f8 983d
00000310: 31da a7bc 8748 3cbd 9da7 97bd 1bf5 b2be
00000320: b071 e2bd 0b63 b13d 32f8 213d 0aeb 86bd
00000330: 2336 5b3c 0117 113d 338f fc3a d87c 033e
00000340: f12e 8c3d f057 c1bc 2b05 94bd d70b cd3c
00000350: e80e 08be 4eba b73c a895 8c3d 249b febc
00000360: bf80 09bd 7da7 27bd 683c 593d a056 9e3d
00000370: c58b 5dbe a78a ed3c ceff d83d c363 0d3e
00000380: 722f 283c 588d 22be d0fe 143e 4ba6 bcbd
00000390: adfb 22be 5753 51bd 5a4f 263e 5ea5 bd3d
000003a0: b69d b1bc a0f5 b4bd 8299 463d 57bf 61be
000003b0: 1b23 7f3d 0237 fcbd e8ab 8abe 22cd 9e3d
000003c0: 1e97 10bd 8760 63bd 7707 73bc 5a09 2c3e
000003d0: 2664 84be e3ff 5abe 0cf6 7abd 7736 45be
000003e0: cae7 263c 8114 303d ef57 12bd 6cc2 8ebd
000003f0: c2b5 c93d e32c 0dbe f29e 88bd 011b d53c

bias_ih_l0 f4 [256]
0.04076772 0.14049257 0.022287454 0.033929333 0.024263106 -0.03996586 -0.13206904 0.14541776
-0.059009943 0.040413592 0.12589175 0.20893775 0.018131882 0.019357048 0.19539271 -0.110231675
0.14277223 0.0060755587 0.08665921 -0.07710807 -0.08744438 0.108933076 -0.06301272 -0.030498615
0.1923013 0.03526678 -0.040691447 0.0304507 -0.024613012 0.12194048 0.008567868 0.12480709
0.13497074 -0.09283453 0.14430466 -0.06316116 0.14046025 -0.123299986 -0.001227133 0.1233131
0.06947582 0.062510565 0.04621268 -0.09829727 0.07637618 0.03811483 0.093424916 -0.03381979
0.06831466 -0.135175 -0.03485899 -0.15898952 0.019527081 -0.11284428 0.083659664 -0.07959526
-0.046401735 -0.037851878 -0.07696808 0.010934173 0.09874442 0.012473694 0.08624577 0.14136407
0.0478652 0.048193887 0.17211477 -0.05352985 0.203324 0.15919743 0.19862486 0.23483793
0.09819422 0.17598781 0.007335623 0.013425723 0.2789922 0.060848497 0.24232902 0.032859337
-0.02902504 0.16946474 0.10041842 0.14505018 0.02153062 -0.0227648 0.092966616 0.20713544
0.03675833 0.03478942 -0.008862819 0.21831855 0.1303619 0.085934885 0.08324584 0.08289734
0.1681047 0.036535967 0.09870953 0.09390872 0.0008775812 0.09513347 -0.015314329 -0.03897332
-0.032703206 0.119889654 0.104560725 -0.037477363 0.31455833 0.07468701 0.15838552 0.036953464
-0.10568762 0.020667374 0.20218928 0.21608317 0.14106505 0.001607845 0.17103972 -0.010129131
0.10308802 0.027790852 -0.08222615 0.08509382 0.09944818 0.077790715 0.017413918 0.07036723
-0.067669645 -0.0045784027 -0.00873015 -0.07857528 0.055972613 0.0659952 0.0130489245 0.061139155
-0.028529355 0.056759443 -0.10582577 0.023151051 -0.07025576 -0.07745171 0.06579464 0.028861044
0.08844516 -0.13261986 -0.04238395 -0.069864206 -0.024332598 -0.036437377 -0.102600805 -0.085291505
-0.0290663 -0.07701339 0.08241474 -0.13118306 -0.07277619 -0.07429912 0.094785534 0.08123722
0.019595295 0.059387866 0.036327586 0.019749751 -0.1417849 0.012389115 -0.08737285 -0.108360566
0.01340707 0.079292685 -0.005026772 0.11244348 -0.049466856 -0.10515597 -0.10341643 0.15199971
-0.070337854 0.039742757 -0.041174952 0.079810426 0.03194497 0.040307548 -0.07018109 0.07678473
-0.047946934 0.025669398 0.026634667 -0.060673777 0.09836535 -0.092636704 -0.11189304 -0.00484631
0.10151176 0.15890932 0.11278016 0.17609471 0.14466089 0.038345058 0.12955566 0.02210567
-0.0205002 0.19344361 -0.0069596097 0.027512837 0.19492087 0.10605612 0.21057571 0.06273931
-0.0789777 -0.04523946 0.16295119 0.10753799 0.12258168 0.060717225 0.095457226 -0.09931106
0.09715748 -0.042712316 0.04670368 0.093291506 0.15480652 0.16076516 -0.056337137 0.044529516
0.14113489 0.074814804 0.065679014 0.06443787 0.17724417 -0.1127926 -0.047727928 -0.0052966056
-0.10329925 0.083735056 -0.078107744 -0.14027274 0.16203359 0.122327216 -0.016738528 0.040340707
-0.06407984 0.020968787 0.1978041 0.025441768 -0.014796388 -0.029866945 0.016505046 -0.09499938
0.072062805 -0.11893428 0.07078778 0.1558989 0.101294085 0.08308242 0.11761239 0.014080749
00000000: 0efc 263d 49dd 0f3e 2e94 b63c 7cf9 0a3d
00000010: 6cc3 c63c 3eb3 23bd 1b3d 07be 65e8 143e
00000020: 69b4 71bd b988 253d c4e9 003e c7f3 553e
00000030: 5089 943c ac92 9e3c 0715 483e 25c1 e1bd
00000040: e232 123e 7b15 c73b 627a b13d d6ea 9dbd
00000050: 0a16 b3bd 4e18 df3d d00c 81bd 3bd8 f9bc
00000060: a2ea 443e e673 103d 13ac 26bd bf73 f93c
00000070: 3aa1 c9bc eebb f93d 3e60 0c3c dc9a ff3d
00000080: c535 0a3e 0820 bebd 9ac4 133e a35a 81bd
00000090: d0d4 0f3e b484 fcbd c0d7 a0ba 948b fc3d
000000a0: 5749 8e3d 8a05 803d 8249 3d3d 1450 c9bd
000000b0: 1d6b 9c3d 4c1e 1c3d 9055 bf3d 9f86 0abd
000000c0: 8ee8 8b3d 516b 0abe 4dc8 0ebd 26ce 22be
000000d0: 42f7 9f3c e71a e7bd c255 ab3d d702 a3bd
000000e0: bf0f 3ebd 920a 1bbd 71a1 9dbd 3f25 333c
000000f0: 843a ca3d 775e 4c3c 9fa1 b03d bec1 103e
00000100: 4d0e 443d f466 453d db3e 303e 1e42 5bbd
00000110: 2b34 503e a704 233e 5164 4b3e 5b79 703e
00000120: 0d1a c93d 2636 343e aa5f f03b 90f7 5b3c
00000130: 11d8 8e3e 463c 793d 1925 783e 8397 063d
00000140: ecc5 edbc 2a88 2d3e 2ca8 cd3d 0988 143e
00000150: fc60 b03c 3f7d babc 4865 be3d 501b 543e
00000160: e78f 163d 5a7f 0e3d 5b35 11bc e68e 5f3e
00000170: 977d 053e a1fe af3d cc7c aa3d 15c6 a93d
00000180: a323 2c3e bda6 153d 3928 ca3d 3753 c03d
00000190: 7a0d 663a 56d5 c23d f4e8 7abc 7da2 1fbd
000001a0: ccf3 05bd b588 f53d ef23 d63d dd81 19bd
000001b0: ca0d a13e 81f5 983d d02f 223e 845c 173d
000001c0: c072 d8bd a04e a93c b50a 4f3e e844 5d3e
000001d0: 5b73 103e 53be d23a 0925 2f3e a8f4 25bc
000001e0: d01f d33d a4a9 e33c 2f66 a8bd ab45 ae3d
000001f0: 7dab cb3d bd50 9f3d a2a7 8e3c b21c 903d
00000200: 6296 8abd 6d06 96bb e708 0fbc 14ec a0bd
00000210: 8a43 653d 7e28 873d 28cb 553c 0d6d 7a3d
00000220: 65b6 e9bc 977c 683d 2ebb d8bd 46a7 bd3c
00000230: 40e2 8fbd 019f 9ebd 57bf 863d ff6d ec3c
00000240: bc22 b53d 80cd 07be cb9a 2dbd f714 8fbd
00000250: 2855 c7bc 5c3f 15bd 5f20 d2bd 50ad aebd
00000260: 731c eebc 32b9 9dbd 0fc9 a83d da54 06be
00000270: af0b 95bd 232a 98bd eb1e c23d b35f a63d
00000280: 5086 a03c b140 733d 3ccc 143d 3bca a13c
00000290: 1030 11be b7fb 4a3c 89f0 b2bd 25ec ddbd
000002a0: 54a9 5b3c 3464 a23d 9fb7 a4bb c448 e63d
000002b0: c29d 4abd 035c d7bd fecb d3bd d0a5 1b3e
000002c0: 4b0d 90bd 4dc9 223d 11a7 28bd a673 a33d
000002d0: bbd8 023d 8719 253d 1abb 8fbd 5041 9d3d
000002e0: 0164 44bd a148 d23c f230 da3c 1185 78bd
000002f0: c673 c93d 50b8 bdbd 2e28 e5bd cbcd 9ebb
00000300: 66e5 cf3d 20b9 223e 49f9 e63d 2c52 343e
00000310: fc21 143e b50f 1d3d 3daa 043e f316 b53c
00000320: 09f0 a7bc 1516 463e 700d e4bb 9a62 e13c
00000330: 5699 473e f333 d93d 29a1 573e 787d 803d
00000340: 0fbf a1bd 034d 39bd addc 263e e13c dc3d
00000350: 1b0c fb3d a0b2 783d 147f c33d 9963 cbbd
00000360: 80fa c63d 1cf3 2ebd 5c4c 3f3d 9e0f bf3d
00000370: 9a85 1e3e 9f9f 243e c5c1 66bd 9564 363d
00000380: aa85 103e 8138 993d b882 863d 01f8 833d
00000390: 7f7f 353e cfff e6bd 5c7e 43bd 268f adbb
000003a0: 8f8e d3bd 497d ab3d f4f6 9fbd a8a3 0fbe
000003b0: 22ec 253e b186 fa3d 3d1f 89bc 4c3c 253d
000003c0: 4b3c 83bd bcc6 ab3c 288d 4a3e 416b d03c
000003d0: 8d6c 72bc 86ab f4bc 9735 873c 098f c2bd
000003e0: aa95 933d d193 f3bd 2ff9 903d f6a3 1f3e
000003f0: 4673 cf3d 1e27 aa3d c4de f03d f1b2 663c

bias_hh_l0 f4 [256]
-0.031498116 0.03345939 0.092230886 0.0041611632 -0.05923198 -0.07179028 -0.13421132 -0.019500662
-0.15546364 -0.06682279 0.057870686 0.085544005 -0.010577889 -0.0021407355 0.17921533 -0.047239047
-0.0037936983 0.11904974 0.02280202 -0.037729327 -0.09404901 -0.091853455 0.06569645 0.04290084
0.014709713 0.05049698 0.055538166 -0.029737117 0.07035858 0.15753701 0.051609572 0.07022917
-0.056938484 0.06958446 0.059059516 -0.10160876 0.20553756 -0.07445662 -0.019188339 0.09366437
0.1128608 0.083339594 -0.108572885 0.024595398 0.0529056 -0.050749186 -0.055339865 0.046653774
-0.018700525 0.013375454 0.081365846 0.03486578 0.09068141 0.08188049 0.08087081 -0.027066126
-0.00023313609 -0.12546612 -0.0423772 0.057360888 -0.093487896 0.077034585 -0.036326792 0.08048178
0.10647467 0.012059517 0.06617814 0.13279659 0.039552547 -0.06346206 0.08839738 0.047362134
-0.115292415 0.023250466 -0.07147717 -0.019124929 0.10885804 0.124821454 0.013462917 0.0038866808
0.054835062 -0.047331758 0.14348479 0.14983937 0.13462296 -0.04851043 -0.048189428 0.0734313
0.13252391 0.07703619 -0.07594772 0.23384646 0.1550436 -0.0014157019 -0.0682919 0.14203887
0.20161325 0.13968317 0.05820552 -0.0383105 0.14321 -0.08764137 -0.059023585 0.01816254
-0.02669817 0.11104955 0.07084978 0.07790872 0.2091927 0.097274445 0.056910254 0.08383152
0.111374475 0.06627457 0.16439061 0.26273918 0.119920224 0.09478332 0.15589233 0.066593595
0.064132355 -0.036330197 0.13527754 -0.08038443 -0.08469976 0.012991718 0.1645411 0.14001738
-0.0949539 -0.12504087 -0.0869903 -0.07924203 -0.11203485 -0.06331232 -0.016693108 0.062092625
-0.066551305 0.06674186 -0.08050853 -0.14802101 0.07944967 -0.04961649 0.103867404 -0.04700271
-0.08097793 -0.109475255 -0.021890853 0.08458913 -0.022940224 0.0024914956 0.028018896 -0.04165052
0.0040972806 -0.12167768 -0.010647467 -0.079383835 -0.12290691 0.09053349 -0.096033104 -0.059086274
-0.004730512 -0.09487357 -0.08979907 -0.121048294 -0.07698279 -0.007419344 -0.050405364 -0.088466465
-0.011208068 0.045898966 -0.10777645 0.07512957 -0.06835674 -0.021729486 0.051225245 -0.061979316
-0.024856877 -0.04448209 -0.05279759 0.116076246 -0.071142234 0.0142483525 -0.077569455 0.07960589
0.011638706 -0.043420415 -0.094669156 0.022450661 -0.08533813 0.012169556 -0.044834994 0.09388025
0.09724299 0.08273933 0.1195908 0.0009043665 0.13456596 0.10588199 0.006137772 0.16825224
-0.13225439 0.20463206 0.06762196 0.11510797 0.19189917 -0.046926413 0.16516048 -0.08697002
0.031451628 0.06784228 0.08680691 0.07434135 0.13070059 -0.008027919 0.022205906 0.054837395
0.07599735 0.030274898 -0.06778374 0.0074616824 0.09826614 0.26687315 0.053833365 0.098958746
0.21341302 -0.010684354 -0.030930443 0.0051853806 0.26608798 0.09417025 0.10819638 0.10413918
-0.10707347 0.0048888014 -0.059026703 -0.13586332 0.11038676 0.0957774 -0.007673576 0.08383551
-0.034294557 0.04756361 0.053685956 0.04988008 0.0755086 0.004802596 0.0077339574 0.011155143
0.05792829 -0.05223822 -0.045652047 0.13262022 -0.049511172 0.17524515 0.16793995 0.20245188
00000000: 2b04 01bd b70c 093d 8ce3 bc3d 5e5a 883b
00000010: 3c9d 72bd c806 93bd b16e 09be dabf 9fbc
00000020: dc31 1fbe 63da 88bd d009 6d3d b231 af3d
00000030: e24e 2dbc 954b 0cbb 3984 373e bb7d 41bd
00000040: b29f 78bb 5ad0 f33d 4dcb ba3c 118a 1abd
00000050: c49c c0bd aa1d bcbd dc8b 863d cbb8 2f3d
00000060: 0201 713c ecd5 4e3d fd7b 633d 419b f3bc
00000070: 2918 903d 6251 213e 8f64 533d 50d4 8f3d
00000080: 5438 69bd 4c82 8e3d 64e8 713d 4118 d0bd
00000090: 7078 523e b67c 98bd dd30 9dbc 1bd3 bf3d
000000a0: 9023 e73d f3ad aa3d 765b debd 4a7c c93c
000000b0: 8bb3 583d 61de 4fbd 0eac 62bd 0718 3f3d
000000c0: d831 99bc b824 5b3c 23a3 a63d 6ccf 0e3d
000000d0: 2db7 b93d f5b0 a73d 989f a53d c8b9 ddbc
000000e0: fe75 74b9 317a 00be b793 2dbd 40f3 6a3d
000000f0: 9576 bfbd 4fc4 9d3d 67cb 14bd a2d3 a43d
00000100: 640f da3d 4895 453c 6888 873d d4fb 073e
00000110: da01 223d 66f8 81bd b009 b53d ccfe 413d
00000120: 6e1e ecbd c377 be3c 9f62 92bd e2ab 9cbc
00000130: f7f0 de3d 64a2 ff3d 9193 5c3c afb7 7e3b
00000140: bb9a 603d f2de 41bd aded 123e 7e6f 193e
00000150: 9ada 093e dfb2 46bd 4762 45bd 2663 963d
00000160: 59b4 073e 26c5 9d3d 7a8a 9bbd 7275 6f3e
00000170: c0c3 1e3e 138f b9ba a0dc 8bbd a372 113e
00000180: b473 4e3e 1b09 0f3e e968 6e3d 79eb 1cbd
00000190: a4a5 123e 527d b3bd b7c2 71bd 9bc9 943c
000001a0: 1fb6 dabc f26d e33d b119 913d 9b8e 9f3d
000001b0: 9c36 563e d337 c73d ba1a 693d dcaf ab3d
000001c0: 4d18 e43d f6ba 873d 0356 283e c085 863e
000001d0: bc98 f53d c21d c23d 3da2 1f3e 3962 883d
000001e0: d357 833d f9ce 14bd 3286 0a3e 98a0 a4bd
000001f0: 1177 adbd 37db 543c 767d 283e b760 0f3e
00000200: 3177 c2bd b70a 00be f827 b2bd a549 a2bd
00000210: 8772 e5bd e4a9 81bd fcbf 88bc d654 7e3d
00000220: 0d4c 88bd f5af 883d a8e1 a4bd d292 17be
00000230: 82b6 a23d a93a 4bbd 6fb8 d43d ea85 40bd
00000240: c2d7 a5bd 9034 e0bd 7254 b3bc 113d ad3d
00000250: 23ed bbbc 5c48 233b e287 e53c bc99 2abd
00000260: 7b42 863b 2632 f9bd b772 2ebc fe93 a2bd
00000270: 9eb6 fbbd 9f69 b93d 01ad c4bd 7304 72bd
00000280: 6902 9bbb 134d c2bd 93e8 b7bd 2be8 f7bd
00000290: 27a9 9dbd f81d f3bb db75 4ebd e82d b5bd
000002a0: 0ba2 37bc 8e00 3c3d e6b9 dcbd 88dd 993d
000002b0: 9efe 8bbd 0902 b2bc 90d1 513d 06de 7dbd
000002c0: a6a0 cbbc da32 36bd 4942 58bd 62b9 ed3d
000002d0: 05b3 91bd ec71 693c bcdc 9ebd 6a08 a33d
000002e0: 45b0 3e3c 9bd9 31bd e7e1 c1bd 73ea b73c
000002f0: c2c5 aebd d162 473c e6a4 37bd 4a44 c03d
00000300: 5527 c73d 3d73 a93d 05ec f43d 0213 6d3a
00000310: a9cb 093e a8d8 d83d 5d1f c93b 514a 2c3e
00000320: b26d 07be 118b 513e 627d 8a3d babd eb3d
00000330: 3781 443e e935 40bd d41f 293e 561d b2bd
00000340: 6cd3 003d e5f0 8a3d d2c7 b13d 4740 983d
00000350: 60d6 053e 8887 03bc 29e9 b53c 2d9d 603d
00000360: 80a4 9b3d 1003 f83c 34d2 8abd 2181 f43b
00000370: c23f c93d 99a3 883e 6080 5c3d e2aa ca3d
00000380: f188 5a3e 6e0d 2fbc d761 fdbc 20ea a93b
00000390: af3c 883e 55dc c03d 1096 dd3d ec46 d53d
000003a0: 5649 dbbd 3d32 a03b fcc5 71bd c11f 0bbe
000003b0: 7412 e23d f126 c43d 9f72 fbbb f4b1 ab3d
000003c0: 7378 0cbd 0fd2 423d cee5 5b3d 0e4f 4c3d
000003d0: 41a4 9a3d 185f 9d3b 236d fd3b 10c4 363c
000003e0: 3746 6d3d bef7 55bd a4fd 3abd 98cd 073e
000003f0: 3acc 4abd 7773 333e 73f8 2b3e 8c4f 4f3e

weight f4 [4, 64]
-0.07629039 -0.17091009 -0.43994915 -0.76612693 -0.506471 -0.49799424 0.42579982 -0.6717866
0.04487922 -0.0722933 0.47664753 0.25607106 -0.8272904 0.17897996 -0.20293823 0.19142842
-0.20903747 0.62756824 0.24206364 -0.15402415 -0.74289525 1.2516135 -0.050232083 -0.5630669
0.6572337 -0.2343771 0.16134718 0.31521508 0.5036288 0.9079754 -0.28835872 -0.9371833
0.85806113 0.011307803 -0.42269793 -0.8768407 0.14661479 -0.12421832 0.14479704 -0.93785244
-0.22432265 -0.0711302 0.19571717 -0.08377428 0.44728613 0.57801455 -0.2911975 0.55421644
-0.2815962 -0.20300806 0.9405534 -0.74715114 -0.45028016 -0.4283849 0.69557106 0.13746025
0.35758826 0.38350472 -0.5972498 -0.16863948 0.043671098 -0.4122909 0.712966 -0.767195
-0.0024207374 -0.16610944 -0.3305067 0.12913305 -0.00480718 0.5441236 -0.43403092 0.062289435
-0.021600967 0.47104406 -0.6562167 -0.41888803 -0.038644463 -0.36548656 -0.21903715 -0.35474882
0.3404587 -0.30748427 -0.5149048 0.51170635 -0.031599153 -0.32839003 0.28365102 0.29140162
0.87983364 -0.072979555 -0.26659647 -0.37479714 -0.48366937 -0.4581029 0.0018721542 -0.26359692
-0.3141234 0.5791311 0.36937863 0.29030722 -0.41394678 0.3318457 -0.31218916 0.4057188
-0.16190042 -0.50141674 0.0027653507 -0.047383267 -0.09310415 -0.23547335 -0.5349168 -0.57938266
-0.19743818 -0.22993162 -0.20463239 0.35950816 0.11409614 0.08454015 0.21480134 0.020067386
0.18779783 -0.2649244 0.36282885 -0.16893132 0.3616388 -0.04405358 -0.42082477 0.09239408
-0.20893344 0.26301464 0.3172475 -0.35754433 0.6700078 -0.39187023 0.082734816 0.5544783
0.3155434 0.1815425 -0.103648864 1.2676898 0.5368264 0.60124165 -0.25539005 0.18919781
-0.15215583 0.23385438 0.50177246 -0.44642407 0.55569404 -0.0832226 -0.10275961 0.23100877
-0.5703271 0.35074314 -0.1641797 1.0600998 0.02234247 0.028370012 -0.40747133 0.22183503
0.17614697 -0.52990294 0.35768905 0.4097528 0.8364973 -0.13216387 -0.20742084 -0.04299754
0.016529094 0.511428 0.3047252 0.31988046 -0.3139575 -0.4458415 0.3422419 0.08425073
-0.24600063 0.1745768 0.13064647 -0.7014019 -0.012224584 0.50565386 -0.3889925 0.51986736
-0.45769158 0.35853705 -0.11634278 0.17284134 -0.78280777 0.41495892 0.1937166 0.7369003
0.6105903 -0.22761258 0.7068587 0.24903189 -0.020761529 -0.049014904 0.4175529 -0.11370746
-0.1994266 -0.7903488 0.5629584 -0.49160737 0.36389297 -0.21185325 0.70881486 0.2778022
-0.022673992 -0.06504041 0.07763757 -0.5611139 0.06413148 -0.3002064 0.052739944 -0.5630759
-0.63878345 0.19628012 0.7325015 -0.4249361 0.08819021 -0.22678363 0.5195591 0.37504768
-0.14951031 0.03759728 -0.38818446 -0.35422772 -0.3375028 -0.43335512 0.5486506 -0.044095755
0.594614 0.18714753 -0.46718988 0.003116023 0.07948199 0.43783247 0.69736254 0.3802539
0.6086283 0.5947233 -0.46410295 0.46272773 0.30388114 -0.4014179 -0.3816998 -0.24753432
-0.032838162 0.09438158 -0.14589076 0.3983256 0.009334057 0.025574485 -0.38072357 -0.5425192
00000000: 233e 9cbd 0e03 2fbe 0441 e1be e520 44bf
00000010: 15a8 01bf 1af9 febe 6f02 da3e 35fa 2bbf
00000020: 46d3 373d 820e 94bd 250b f43e bf1b 833e
00000030: 4ec9 53bf 8646 373e 0acf 4fbe d005 443e
00000040: eb0d 56be 50a8 203f 88df 773e 82b8 1dbe
00000050: 622e 3ebf df34 a03f 28c0 4dbd 2725 10bf
00000060: 7840 283f 8d00 70be 3238 253e df63 a13e
00000070: d1ed 003f 1371 683f c1a3 93be 3feb 6fbf
00000080: e5a9 5b3f 5d44 393c dd6b d8be a278 60bf
00000090: 3022 163e 2d66 febd ad45 143e 1917 70bf
000000a0: d6b4 65be b6ac 91bd 156a 483e da91 abbd
000000b0: b002 e53e c3f8 133f d717 95be 21e1 0d3f
000000c0: 612d 90be 58e1 4fbe 1cc8 703f 4c45 3fbf
000000d0: 1f8b e6be 4455 dbbe f210 323f 61c2 0c3e
000000e0: cf15 b73e bb5a c43e 5de5 18bf d4af 2cbe
000000f0: 77e0 323d cb17 d3be f184 363f e466 44bf
00000100: 3ca5 1ebb 9818 2abe 2d38 a9be 743b 043e
00000110: 8c85 9dbb af4b 0b3f 4d39 debe 3523 7f3d
00000120: 83f4 b0bc b02c f13e d1fd 27bf 7e78 d6be
00000130: a849 1ebd 0e21 bbbe 464b 60be a3a1 b5be
00000140: 9a50 ae3e 946e 9dbe cdd0 03bf 30ff 023f
00000150: 1d6e 01bd bd22 a8be b53a 913e 9832 953e
00000160: c73c 613f 4e76 95bd 557f 88be 69e5 bfbe
00000170: 83a3 f7be 778c eabe 1263 f53a 2df6 86be
00000180: c8d4 a0be f041 143f 321f bd3e 26a3 943e
00000190: d5f0 d3be aee7 a93e 42d7 9fbe 60ba cf3e
000001a0: 39c9 25be d95c 00bf e33a 353b f514 42bd
000001b0: 63ad bebd ed1f 71be 4ff0 08bf 6c52 14bf
000001c0: 3c2d 4abe 3273 6bbe 278b 51be 7411 b83e
000001d0: 3dab e93d 6323 ad3d e2f4 5b3e 5c64 a43c
000001e0: 134e 403e 2ca4 87be b4c4 b93e 55fc 2cbe
000001f0: b928 b93e 8771 34bd 5876 d7be 1b39 bd3d
00000200: a6f2 55be dba9 863e 446e a23e 0d10 b7be
00000210: a285 2b3f 37a3 c8be df70 a93d 4af2 0d3f
00000220: e88e a13e 47e6 393e db45 d4bd a943 a23f
00000230: 746d 093f f9ea 193f 7cc2 82be 12bd 413e
00000240: bdce 1bbe 8677 6f3e 2974 003f b291 e4be
00000250: f741 0e3f 9c70 aabd a173 d2bd 908d 6c3e
00000260: f500 12bf 9b94 b33e b91e 28be 5ab1 873f
00000270: 8e07 b73c 3a68 e83c 15a0 d0be b928 633e
00000280: df5f 343e b8a7 07bf 0523 b73e 1ecb d13e
00000290: b024 563f f755 07be 2166 54be 301e 30bd
000002a0: 0668 873c f2ec 023f f104 9c3e 5fc7 a33e
000002b0: 0abf a0be 5645 e4be 553a af3e a68b ac3d
000002c0: 97e7 7bbe 43c4 323e 30c8 053e 138f 33bf
000002d0: 9f49 48bc 8872 013f 062a c7be 0716 053f
000002e0: 8d56 eabe 2b92 b73e 2045 eebd 52fd 303e
000002f0: 1766 48bf 7f75 d43e a55d 463e 80a5 3c3f
00000300: a54f 1c3f 4613 69be b1f4 343f 3702 7f3e
00000310: 1514 aabc dac3 48bd 7ec9 d53e 75df e8bd
00000320: 7d36 4cbe 4d54 4abf 0b1e 103f f6b3 fbbe
00000330: 2e50 ba3e 0ff0 58be e474 353f 173c 8e3e
00000340: cfbe b9bc e833 85bd 7200 9f3d 29a5 0fbf
00000350: 5e57 833d a7b4 99be d705 583d be25 10bf
00000360: 5087 23bf a8fd 483e 3885 3b3f 3991 d9be
00000370: 129d b43d f839 68be d301 053f 4006 c03e
00000380: 3b19 19be 9bff 193d 1dc0 c6be 565d b5be
00000390: 2bcd acbe b9e0 ddbe 5e74 0c3f c09d 34bd
000003a0: a038 183f 9aa3 3f3e 8333 efbe 3136 4c3b
000003b0: 74c7 a23d 942b e03e 5a86 323f a4b0 c23e
000003c0: 10cf 1b3f c93f 183f e79e edbe a6ea ec3e
000003d0: 4f96 9b3e a686 cdbe 286e c3be a379 7dbe
000003e0: 4f81 06bd 214b c13d 6364 15be 55f1 cb3e
000003f0: dfed 183c 9581 d13c 33ee c2be 8ae2 0abf

bias f4 [4]
0.06605988 0.058924872 -0.041803587 -0.055392284
00000000: 674a 873d 355b 713d 3d3a 2bbd 05e3 62bd
